assignments/04_assignment/PointNet/exps/cls_256D/model.pth (torch, 323192 bytes, 26 tensors)

feat.mlp1.0.weight f4 [64, 3, 1]
-0.12531151 -0.83677673 -0.10432393 0.44788122 -0.16568466 0.6409976 -0.26271927 -0.39601603
-0.40078205 0.45984462 0.7929664 -0.05682768 -0.32190382 0.07102741 -0.58362854 0.41737482
0.044539675 -0.7279252 0.4130787 0.33810475 0.6460235 0.48926875 0.39868194 0.38800162
0.008915836 -0.95077723 -0.016632982 0.43265256 0.047834218 -0.6034107 0.3779894 -0.505167
0.29886174 0.1618417 0.53021157 -0.276965 -0.058012627 0.59585273 -0.46026388 -0.5868296
-0.36903593 0.07457506 -0.3733546 0.41075563 -0.57501936 -0.1763916 -0.54281455 -0.4134107
0.12715405 0.61612564 -0.039346457 -0.47999144 0.28519085 -0.3649816 -0.11498402 -0.3739431
-0.7377271 -0.16847059 0.62819695 -0.45604694 0.62605685 -0.27975276 0.53273296 -0.27510273
0.099752724 -0.7008606 -0.0035489243 -0.46798077 -0.7382357 0.35681567 0.021923587 -0.60510755
0.16617489 -0.35777503 -0.55983186 0.06513196 -0.85873264 -0.015002383 0.37195498 -0.40815142
0.48192695 0.6747985 -0.23388661 0.23467089 1.0465187 -0.003570676 -0.0012740999 -0.040216282
-0.33045766 -0.44305494 -0.37278637 -0.12632865 0.48550305 0.110124 0.18643862 0.7185219
0.7539532 0.42762703 -0.38770458 0.106744535 -0.12133293 0.50506437 0.056321394 -0.5096649
0.36373055 -0.16694254 0.47287494 -0.046354447 0.43759817 0.07260458 0.012862811 -0.56906015
-0.28209937 0.071620405 -0.5679163 -0.36036587 0.27593565 0.46526957 -0.255445 -0.2927361
0.23082373 -0.20994408 0.2502981 -0.12929922 -0.088856585 1.061653 -0.06260967 0.6168742
0.18202281 0.1601515 0.48206738 0.29676953 0.7275127 0.36578006 -0.34080738 -0.40869918
0.6839731 -0.26287025 -1.2438691 0.034799125 -0.06133491 0.4327533 0.09246893 -0.71923494
-0.41424286 0.24843797 0.3379099 0.24408013 0.1608123 0.7689006 0.043131743 0.06658875
-0.51905215 0.038667526 -0.82694656 0.015166292 -0.13928942 -0.21177346 0.29007748 0.41830802
0.25180173 0.10020512 -0.83158314 0.04381531 0.23402466 0.38534546 0.3331387 0.31508645
0.8314264 -0.0017887228 -0.21751852 -0.4541812 -0.34070557 0.35361436 0.38678125 -0.06331563
0.34169644 0.16008607 0.83147883 0.2131468 0.42223084 -0.046750408 -0.505059 -0.21332936
-0.608923 -0.47289377 -0.4610006 -0.3151866 -0.4300099 -0.55388844 -0.34979287 0.14196488
00000000: a951 00be 0037 56bf c9a7 d5bd b050 e53e
00000010: 3da9 29be 6b18 243f 2483 86be 9dc2 cabe
00000020: 4e33 cdbe c170 eb3e d9ff 4a3f 24c4 68bd
00000030: 94d0 a4be d276 913d ae68 15bf 27b2 d53e
00000040: 3c6f 363d 4e59 3abf 0d7f d33e 111c ad3e
00000050: cc61 253f 6f81 fa3e 0a20 cc3e 26a8 c63e
00000060: ba13 123c 2366 73bf e441 88bc a384 dd3e
00000070: d0ed 433d 2079 1abf d487 c13e a052 01bf
00000080: 6804 993e d5b9 253e f2bb 073f 5bce 8dbe
00000090: a69e 6dbd ce89 183f b5a7 ebbe 773a 16bf
000000a0: 47f2 bcbe cfba 983d 5628 bfbe 904e d23e
000000b0: 7834 13bf 00a0 34be e5f5 0abf 91aa d3be
000000c0: ac34 023e 69ba 1d3f c029 21bd 70c1 f5be
000000d0: 8904 923e dede babe be7c ebbd 7875 bfbe
000000e0: afdb 3cbf 8e83 2cbe 84d1 203f fc7e e9be
000000f0: 4345 203f c13b 8fbe 3061 083f 44da 8cbe
00000100: 284b cc3d 9a6b 33bf 1295 68bb 2d9b efbe
00000110: 04fd 3cbf 8bb0 b63e 1899 b33c 54e8 1abf
00000120: c029 2a3e 4a2e b7be 2451 0fbf e863 853d
00000130: e7d5 5bbf 8ecc 75bc e270 be3e 39f9 d0be
00000140: 21bf f63e 98bf 2c3f f97f 6fbe 914d 703e
00000150: 53f4 853f 0102 6abb b3ff a6ba d4b9 24bd
00000160: bf31 a9be 19d8 e2be dbdd bebe 4c5c 01be
00000170: db93 f83e b188 e13d c4e9 3e3e 0df1 373f
00000180: 1403 413f eef1 da3e 3781 c6be e19c da3d
00000190: 667d f8bd e64b 013f 43b1 663d 6679 02bf
000001a0: e43a ba3e fcf2 2abe aa1c f23e 29de 3dbd
000001b0: de0c e03e b6b1 943d 8abe 523c edad 11bf
000001c0: 546f 90be b8ad 923d f662 11bf e081 b8be
000001d0: 7047 8d3e d037 ee3e b0c9 82be 82e1 95be
000001e0: 0e5d 6c3e 95fb 56be 1327 803e 0467 04be
000001f0: 71fa b5bd 3fe4 873f 8039 80bd 78eb 1d3f
00000200: 3064 3a3e c1fe 233e 89d1 f63e 2df2 973e
00000210: 463e 3a3f 8647 bb3e 4e7e aebe 0541 d1be
00000220: dc18 2f3f ee96 86be 1a37 9fbf 8789 0e3d
00000230: 513a 7bbd d791 dd3e 5a60 bd3d c81f 38bf
00000240: a417 d4be 8666 7e3e 8702 ad3e 24f0 793e
00000250: fbab 243e abd6 443f e9aa 303d af5f 883d
00000260: 9ae0 04bf d761 1e3d c5b2 53bf 0a7c 783c
00000270: e3a1 0ebe 24db 58be 0985 943e 782c d63e
00000280: 28ec 803e 5838 cd3d a2e2 54bf af77 333d
00000290: 29a4 6f3e 004c c53e 2891 aa3e 0353 a13e
000002a0: 5cd8 543f 9473 eaba 2dbd 5ebe 708a e8be
000002b0: f670 aebe f10c b53e 3108 c63e a0ab 81bd
000002c0: d6f2 ae3e 9aed 233e ccdb 543f 2843 5a3e
000002d0: a42e d83e 5b7d 3fbd 8c4b 01bf 0373 5abe
000002e0: 61e2 1bbf 221f f2be 4508 ecbe 2360 a1be
000002f0: 422a dcbe a2cb 0dbf 0d18 b3be 3e5f 113e

feat.mlp1.0.bias f4 [64]
-0.6827256 -0.097257845 -0.43760768 0.2702933 -0.122559026 0.4734988 0.1314508 -0.7039091
0.025660522 -0.33998024 -0.3301756 -0.13853198 0.5279991 0.23722321 0.6431045 -0.002691085
0.3763636 -0.2211573 -0.13724372 0.028074387 -0.31914517 0.6126446 0.21558234 0.38417935
0.054726772 -0.2678709 -0.30572006 -0.526123 0.43393186 0.21532284 0.4794233 -0.32654965
-0.052531898 0.18236013 -0.14622201 0.12452627 0.36383536 0.27796024 0.3984559 -0.43032742
0.19073142 0.48798302 0.36461565 -0.566091 -0.37824947 0.3734137 0.20980254 -0.17476542
-0.5552997 -0.46501797 0.316303 0.07257003 -0.22645296 -0.07429688 0.537323 -0.4440943
0.70119333 0.14905393 -0.011460908 -0.26686454 0.015225416 0.59225935 0.17798486 0.2765346
00000000: 1bc7 2ebf 1f2f c7bd 1d0e e0be e263 8a3e
00000010: 3a00 fbbd 6f6e f23e 0a9b 063e 6333 34bf
00000020: 0436 d23c e411 aebe c70c a9be 54db 0dbe
00000030: f32a 073f a4ea 723e 7fa2 243f ea5c 30bb
00000040: bbb2 c03e 0f77 62be 9e89 0cbe 42fc e53c
00000050: ff66 a3be 47d6 1c3f 9ec1 5c3e 28b3 c43e
00000060: 2e29 603d 6026 89be 5787 9cbe ffaf 06bf
00000070: 512c de3e 977d 5c3e f976 f53e 8431 a7be
00000080: b02b 57bd 9dbc 3a3e 39bb 15be a107 ff3d
00000090: a148 ba3e ce50 8e3e 6902 cc3e e053 dcbe
000000a0: 194f 433e e9d8 f93e e7ae ba3e 57eb 10bf
000000b0: eaa9 c1be 1530 bf3e 7ad6 563e b5f5 32be
000000c0: 1f28 0ebf d616 eebe 78f2 a13e 999f 943d
000000d0: 49e3 67be f628 98bd 008e 093f 5460 e3be
000000e0: 6881 333f 98a1 183e 88c6 3bbc 78a2 88be
000000f0: 0674 793c 4f9e 173f aa41 363e f195 8d3e

feat.mlp1.1.weight f4 [64]
1.210835 0.97287184 0.91078544 1.0122013 1.2349722 1.0176526 0.85331136 0.9650496
1.1507955 0.9806094 1.0701852 0.8064974 0.81534857 0.96314627 1.1253201 0.91009766
1.1078153 0.95908284 1.1133391 1.0875171 1.1950711 1.1926224 0.9184802 0.98645544
0.9149058 1.2399554 0.97652704 1.0567447 1.1842737 0.90641177 0.74489313 1.2048064
0.9839658 0.70373017 0.8472201 0.99557537 1.0379503 0.83437765 0.9497889 0.9820909
1.0028437 1.1704655 1.2829225 0.83469796 0.9313432 1.0255505 1.475337 1.1204716
1.2453308 1.2060474 1.0781499 1.3139814 0.755584 0.78229433 1.4912751 0.7734376
1.1528757 0.8346361 0.9222533 1.1243329 1.0700523 1.0935127 0.9989282 0.6892169
00000000: a4fc 9a3f 210e 793f 3c29 693f d08f 813f
00000010: 9213 9e3f 7142 823f 9d72 5a3f 7e0d 773f
00000020: 444d 933f 3809 7b3f d4fb 883f 9d76 4e3f
00000030: afba 503f c190 763f 7d0a 903f 29fc 683f
00000040: e4cc 8d3f 7486 753f e581 8e3f c333 8b3f
00000050: 17f8 983f daa7 983f 8521 6b3f 5888 7c3f
00000060: 4437 6a3f dcb6 9e3f adfd 793f 6943 873f
00000070: 4896 973f 9a0a 683f 51b1 3e3f 1937 9a3f
00000080: 2fe5 7b3f a927 343f 6be3 583f 07de 7e3f
00000090: 8edb 843f c699 553f 5e25 733f 4f6a 7b3f
000000a0: 2f5d 803f d0d1 953f ce36 a43f c4ae 553f
000000b0: 826c 6e3f 3d45 833f d8d7 bc3f 9d6b 8f3f
000000c0: 0067 9f3f c35f 9a3f d100 8a3f 8b30 a83f
000000d0: f46d 413f 7144 483f 1ae2 be3f 0200 463f
000000e0: 6e91 933f b6aa 553f cb18 6c3f 24ea 8f3f
000000f0: 79f7 883f 39f8 8b3f c2b9 7f3f 8570 303f

feat.mlp1.1.bias f4 [64]
0.22742036 0.13916193 0.21020001 0.2608356 0.08694992 0.007508899 -0.07301621 0.08072873
-0.11036878 0.024952993 0.14579971 0.3035797 0.29358003 0.07457206 -0.089977376 0.1924413
0.35675836 0.016513823 0.124182664 0.19351807 0.2591049 0.005204544 0.13619947 -0.06456981
0.05452471 -0.09319057 0.06318236 0.27536824 -0.052002005 0.14770328 0.42578804 0.12638175
0.111194484 0.18344466 0.13970213 0.26258144 0.11596291 0.17440793 0.09679526 0.06368484
0.048801884 -0.15267998 0.42869014 0.1973959 -0.04593432 0.3663354 0.16892484 -0.022557816
-0.077387124 0.2581113 0.065689564 -0.0943944 0.20462777 -0.1993445 0.044478074 0.23034988
-0.061167203 0.11612256 0.16424294 0.37614965 -0.011475007 0.20683862 0.12669332 0.06694326
00000000: e2e0 683e 7780 0e3e ac3e 573e 3e8c 853e
00000010: cd12 b23d 360d f63b 8689 95bd 1b55 a53d
00000020: 0709 e2bd 386a cc3c 854c 153e cc6e 9b3e
00000030: 1f50 963e 3cb9 983d 0f46 b8bd 550f 453e
00000040: 08a9 b63e ff47 873c 7b53 fe3d 9a29 463e
00000050: 66a9 843e e18a aa3b e077 0b3e 2d3d 84bd
00000060: 4d55 5f3d b3da bebd c165 813d 11fd 8c3e
00000070: 0e00 55bd 873f 173e e400 da3e 386a 013e
00000080: efb9 e33d ebd8 3b3e 130e 0f3e 1371 863e
00000090: f67d ed3d fe97 323e 983c c63d 336d 823d
000000a0: 7ce4 473d 2458 1cbe 467d db3e 2722 4a3e
000000b0: a025 3cbd 5090 bb3e a2fa 2c3e 2bcb b8bc
000000c0: 247d 9ebd 2a27 843e 4088 863d da51 c1bd
000000d0: f189 513e f720 4cbe a42e 363d d7e0 6b3e
000000e0: 768a 7abd aad1 ed3d 4d2f 283e b096 c03e
000000f0: ab01 3cbc 81cd 533e e5bb 013e 8c19 893d

feat.mlp1.1.running_mean f4 [64]
-0.6807969 -0.09009612 -0.44306955 0.2802748 -0.09439468 0.4726079 0.13687095 -0.70238984
0.025593834 -0.343673 -0.33491713 -0.14580168 0.5293888 0.24250756 0.65013915 -0.0030948082
0.3730309 -0.22041592 -0.14353274 0.029040122 -0.30332968 0.6074816 0.22254996 0.39476517
0.056568112 -0.2611408 -0.299036 -0.5310784 0.43615115 0.22289923 0.4790619 -0.3215073
-0.04740898 0.18402126 -0.1515481 0.12216963 0.37680683 0.2742696 0.39208853 -0.4239301
0.19146508 0.48354226 0.3816254 -0.56862795 -0.3722409 0.37449503 0.20025975 -0.17607424
-0.5429183 -0.45000044 0.30520403 0.06561311 -0.23116209 -0.06719086 0.5361432 -0.44100264
0.6747164 0.15924652 -0.009379568 -0.28265685 0.017549725 0.5858299 0.16250618 0.2708968
00000000: b548 2ebf 5184 b8bd 03da e2be 2e80 8f3e
00000010: ff51 c1bd aaf9 f13e e627 0c3e d2cf 33bf
00000020: 29aa d13c e8f5 afbe 427a abbe 094d 15be
00000030: 0686 073f e753 783e 856f 263f 44d2 4abb
00000040: e8fd be3e b6b4 61be 3ffa 12be 8de5 ed3c
00000050: 074e 9bbe ea83 1b3f 23e4 633e a91e ca3e
00000060: f7b3 673d 3fb4 85be 3f1b 99be c1f4 07bf
00000070: 344f df3e b23f 643e 9a47 f53e 9b9c a4be
00000080: eb2f 42bd 1270 3c3e 6d2f 1bbe 1234 fa3d
00000090: d3ec c03e 116d 8c3e d4bf c83e 5e0d d9be
000000a0: 6c0f 443e da92 f73e 6864 c33e 9a91 11bf
000000b0: 5c96 bebe d0bd bf3e e410 4d3e ce4c 34be
000000c0: b2fc 0abf 7566 e6be b443 9c3e 2b60 863d
000000d0: c1b5 6cbe 5d9b 89bd ae40 093f 19cb e1be
000000e0: 37ba 2c3f 8511 233e c2ac 19bc 66b8 90be
000000f0: 71c4 8f3c f3f8 153f 0568 263e fcb2 8a3e

feat.mlp1.1.running_var f4 [64]
0.067426644 0.07041625 0.03946218 0.08025446 0.048604887 0.079495735 0.07393653 0.056083344
0.08489062 0.06215741 0.05079998 0.037413266 0.057505906 0.050161492 0.06733758 0.049437787
0.037267238 0.047045503 0.07529603 0.06398614 0.08192611 0.061067216 0.082002945 0.05539168
0.051164508 0.07105974 0.057566024 0.061237227 0.118542664 0.03245423 0.04294763 0.06044939
0.09503647 0.031119455 0.039589573 0.025083305 0.021086397 0.043588262 0.05487632 0.040294167
0.017196447 0.12983137 0.040629763 0.033910412 0.082657725 0.071857035 0.16658969 0.07997327
0.037444465 0.074160434 0.030002786 0.06515156 0.015640408 0.02548855 0.082636714 0.03653581
0.08023873 0.046804853 0.029175794 0.0727124 0.04907918 0.063766256 0.052409425 0.046787616
00000000: fb16 8a3d 6536 903d 18a3 213d 735c a43d
00000010: eb15 473d a9ce a23d 096c 973d a6b7 653d
00000020: 22db ad3d c598 7e3d a413 503d a73e 193d
00000030: 508b 6b3d 2376 4d3d 49e8 893d 477f 4a3d
00000040: 88a5 183d c9b2 403d ce34 9a3d 2a0b 833d
00000050: e0c8 a73d 9e21 7a3d 29f1 a73d 63e2 623d
00000060: e091 513d c587 913d 5aca 6b3d e3d3 7a3d
00000070: 7fc6 f23d baee 043d dbe9 2f3d c899 773d
00000080: 7ba2 c23d 3aee fe3c ad28 223d 817b cd3c
00000090: 61bd ac3c 9b89 323d fec5 603d 7f0b 253d
000000a0: 90df 8c3c 84f2 043e 656b 263d a5e5 0a3d
000000b0: 7448 a93d c829 933d 7d96 2a3e 07c9 a33d
000000c0: 5e5f 193d 6de1 973d 67c8 f53c 2e6e 853d
000000d0: 5020 803c 5dcd d03c 703d a93d 93a6 153d
000000e0: 3454 a43d 72b6 3f3d 1302 ef3c 3dea 943d
000000f0: 4007 493d e297 823d 44ab 563d 5fa4 3f3d

feat.mlp2.0.weight f4 [128, 64, 1]
0.12403663 0.1682903 0.15189356 0.13798413 -0.013193622 0.08848265 0.02742554 0.11736375
0.13635579 0.16271077 0.17604746 0.096682765 0.1389155 -0.094330296 0.2977458 0.060074147
0.06782302 -0.07365997 0.1422381 0.17753825 0.30743167 -0.14108412 0.17059462 0.19254632
0.045798942 0.14677663 0.2400774 0.30859217 0.11403605 0.23358436 -0.052892204 -0.020334594
0.25889242 0.10451301 0.11656387 0.17131668 0.19120948 -0.21252374 -0.14104275 0.3223228
0.32566294 -0.21478164 -0.060867034 -0.13451217 0.22667536 0.03290556 -0.30724886 -0.01055785
-0.012008012 -0.21433416 -0.17330076 0.17852439 0.011053169 0.13132246 -0.059087478 0.0054489733
0.21800396 -0.022292867 -0.012604965 0.021382082 0.15004525 0.1604698 -0.19706811 -0.048954017
0.14734372 0.09676808 0.14575522 -0.15185438 -0.12657906 -0.073084146 0.08675485 0.054273915
0.24036403 -0.13439462 0.1033474 -0.10655898 -0.17940597 0.32277155 -0.0019208507 0.17875496
-0.05584735 0.024410749 0.04435535 -0.22298232 0.16471614 -0.2738412 0.032891024 -0.3473964
0.13273641 -0.0066290824 0.15433575 0.032682244 -0.29568502 0.13068478 0.19802438 -0.014913883
-0.09763592 0.21409011 0.21250112 -0.23527305 -0.17360452 0.280687 0.15686014 0.010135473
0.17914446 -0.13928628 0.12819426 0.05196935 0.008303955 -0.032069713 -0.091010645 -0.07605251
0.15357955 -0.14756592 -0.36646605 0.24918534 0.08347216 0.02853585 -0.18417166 0.025121171
-0.1880437 0.06775912 0.05599445 0.13142675 -0.30831358 0.21758658 -0.048412047 0.27757993
-0.15213576 0.04939336 0.022013891 -0.119803675 0.08786022 0.1589504 -0.17430939 -0.09730647
0.02859666 0.06886148 0.12011928 -0.0943114 -0.13300645 -0.17265265 0.15615322 0.12048528
-0.26537353 0.2117333 0.20985481 -0.06043152 -0.008617792 0.026994199 0.21739954 0.0941119
0.1312528 0.035320956 -0.17960568 0.026201863 0.19659394 0.0931463 -0.05583389 -0.2987915
-0.0034533683 -0.28018802 -0.16749293 -0.060165476 -0.11634089 -0.09515157 -0.06406269 0.25888717
0.016718129 -0.3091854 -0.26093513 -0.17194211 -0.031612992 0.09784601 0.03728316 0.06327082
-0.04010754 -0.040452026 -0.048285253 -0.0023545714 -0.20632912 -0.12140776 0.029224964 -0.066772595
0.09875609 -0.015149744 -0.06432344 -0.37548292 0.09327863 0.25427976 0.2669062 -0.18938933
0.011666252 -0.10351536 0.025216918 -0.11490856 0.23460412 0.17611086 -0.09792232 -0.14502986
0.10286566 0.038449638 -0.17675929 -0.019881506 0.16287245 0.102657154 0.15240185 0.16124532
-0.007988749 0.19749267 0.18819301 -0.019131212 -0.12877737 0.23371021 0.007189874 0.013341059
0.17978273 0.08460568 -0.11117941 -0.041583 -0.09084868 0.18062069 0.11561179 -0.18529935
-0.105941795 -0.19991894 -0.082525395 0.19955102 -0.19454756 0.12110524 0.16472876 0.05555684
-0.07010923 -0.24421886 -0.14320529 -0.09274743 -0.015897106 0.20838405 0.1826502 -0.042241067
-0.08016108 -0.13827991 0.21269867 0.0836405 0.016343731 -0.014378188 0.053373605 -0.082982585
0.12383765 0.012207803 0.006475172 -0.2121121 0.0780521 0.089187846 0.11615343 0.15148918
00000000: eb06 fe3d 4b54 2c3e fc89 1b3e b64b 0d3e
00000010: 102a 58bc 6436 b53d 87ab e03c 685c f03d
00000020: daa0 0b3e a79d 263e c945 343e 9d01 c63d
00000030: dd3f 0e3e 3e30 c1bd 2372 983e 4f10 763d
00000040: cce6 8a3d 0adb 96bd dda6 113e 96cc 353e
00000050: af67 9d3e 5b78 10be 5bb0 2e3e dd2a 453e
00000060: ac97 3b3d 9d4c 163e dad6 753e cbff 9d3e
00000070: bc8b e93d bd30 6f3e 7fa5 58bd bc94 a6bc
00000080: 8c8d 843e eb0a d63d 0ab9 ee3d a46d 2f3e
00000090: 6bcc 433e d39f 59be 836d 10be 7e07 a53e
000000a0: 4bbd a63e b8ef 5bbe b64f 79bd 8fbd 09be
000000b0: 961d 683e fbc7 063d b94f 9dbe d5fa 2cbc
000000c0: 41bd 44bc 6a7a 5bbe c175 31be 19cf 363e
000000d0: 5a18 353c 6579 063e b605 72bd 4d8d b23b
000000e0: 6e3c 5f3e 889f b6bc 0e85 4ebc 7a29 af3c
000000f0: 76a5 193e 3252 243e 39cc 49be 0284 48bd
00000100: 46e1 163e 582e c63d db40 153e b77f 1bbe
00000110: f19d 01be 24ad 95bd 87ac b13d 534e 5e3d
00000120: fd21 763e be9e 09be cda7 d33d 983b dabd
00000130: 33b6 37be 5042 a53e 0ec5 fbba 8a0b 373e
00000140: 31c0 64bd 0df9 c73c f5ad 353d 7a55 64be
00000150: 59ab 283e ea34 8cbe bdb8 063d f1dd b1be
00000160: 0eec 073e c638 d9bb 310a 1e3e d1dd 053d
00000170: 0764 97be 3bd2 053e e7c6 4a3e 5c59 74bc
00000180: 57f5 c7bd 703a 5b3e e599 593e 6beb 70be
00000190: 62c5 31be 35b6 8f3e f29f 203e 410f 263c
000001a0: a571 373e 10a1 0ebe 5b45 033e d0dd 543d
000001b0: 500d 083c 885b 03bd ca63 babd 6bc1 9bbd
000001c0: f543 1d3e 851b 17be 70a1 bbbe 712a 7f3e
000001d0: 74f3 aa3d 04c4 e93c 7f97 3cbe eaca cd3c
000001e0: 878e 40be 4bc5 8a3d 705a 653d bc94 063e
000001f0: 47db 9dbe 04cf 5e3e b64b 46bd f51e 8e3e
00000200: 7ac9 1bbe b150 4a3d 7a56 b43c a15b f5bd
00000210: 0ff0 b33d e5c3 223e 297e 32be 9d48 c7bd
00000220: 8b43 ea3c 3f07 8d3d 1901 f63d 5626 c1bd
00000230: d832 08be dbcb 30be a1e6 1f3e fdc0 f63d
00000240: 0adf 87be 9dd0 583e 2ee4 563e 0b87 77bd
00000250: a431 0dbc f022 dd3c fc9d 5e3e bdbd c03d
00000260: 2267 063e b5ac 103d 8dea 37be 4aa5 d63c
00000270: ec4f 493e 7dc3 be3d 14b2 64bd 33fb 98be
00000280: e851 62bb ce74 8fbe 4483 2bbe 1370 76bd
00000290: 2244 eebd d4de c2bd 4d33 83bd dc8c 843e
000002a0: 75f4 883c 8c4d 9ebe 4a99 85be 9811 30be
000002b0: a07c 01bd 7d63 c83d 3ab6 183d 2294 813d
000002c0: ce47 24bd 06b1 25bd c2c6 45bd 274f 1abb
000002d0: f147 53be a2a4 f8bd 3169 ef3c 12c0 88bd
000002e0: a240 ca3d a236 78bc 02bc 83bd 4c3f c0be
000002f0: de08 bf3d f530 823e eea7 883e 47ef 41be
00000300: cf23 3f3c dcff d3bd b693 ce3c 2e55 ebbd
00000310: 103c 703e 6856 343e 7f8b c8bd b582 14be
00000320: 3bab d23d 5e7d 1d3d 6300 35be 8ade a2bc
00000330: 09c8 263e ea3d d23d 3b0f 1c3e 7e1d 253e
00000340: 3ee3 02bc 853b 4a3e abb5 403e 0fb9 9cbc
00000350: 37de 03be bb51 6f3e 0999 eb3b 7594 5a3c
00000360: f718 383e be45 ad3d 08b2 e3bd f052 2abd
00000370: df0e babd a1f4 383e e0c5 ec3d 1dbf 3dbe
00000380: 03f8 d8bd 8db7 4cbe 1303 a9bd 1a57 4c3e
00000390: 7a37 47be 0606 f83d a8ae 283e 928f 633d
000003a0: 6e95 8fbd 8214 7abe 68a4 12be 5df2 bdbd
000003b0: a63a 82bc a162 553e a708 3b3e f804 2dbd
000003c0: 7e2b a4bd 4099 0dbe aecd 593e b64b ab3d
000003d0: 4ae3 853c 7e92 6bbc 489e 5a3d c6f2 a9bd
000003e0: 989e fd3d 3d03 483c ae2d d43b ea33 59be
000003f0: c8d9 9f3d 1ea8 b63d d9e1 ed3d fb1f 1b3e

feat.mlp2.0.bias f4 [128]
-0.028789187 -0.16756196 -0.12920882 -0.01950571 0.08246956 -0.14678042 -0.042931695 -0.036648247
-0.09013593 0.006158268 0.12379728 -0.030425642 0.037886806 -0.051056974 0.06413496 -0.012220504
-0.076249 0.064587876 0.006727972 -0.10413556 0.1587475 0.14760599 -0.07363684 -0.030437304
-0.075673506 -0.022896204 0.060068127 0.016523734 -0.09684812 0.072450936 -0.091852084 -0.0799377
-0.08188473 -0.059725154 -0.084093586 -0.09232055 0.00022876676 0.042351954 -0.14483058 -0.029922113
-0.001679217 -0.029822098 -0.04713796 -0.08808106 -0.04349208 0.10188892 -0.08777129 -0.044499982
0.06773249 0.0825607 -0.09904728 0.10940077 -0.007076332 0.08150979 0.0100434 -0.033925563
0.02843513 -0.11071672 -0.07158308 -0.040722996 0.07097948 0.041304767 -0.05220514 0.06692226
0.11459186 -0.05418172 -0.05493943 -0.06238715 0.009950994 -0.046701252 0.10856803 -0.0581589
0.071370564 -0.10488569 -0.002452602 -0.07741145 -0.10455878 0.04791172 -0.066673025 0.03473554
-0.0041270102 0.10809978 -0.09910498 -0.09524031 0.09240815 -0.06295015 -0.022943009 0.064335525
-0.073975004 -0.043698207 -0.11690894 -0.069985196 -0.10176566 0.026018541 -0.07821074 0.06280651
0.046724092 0.06902879 -0.0001576341 -0.094187 0.0757609 -0.031242084 -0.04935022 0.013429374
0.089131996 0.085819736 -0.056719955 -0.07139848 -0.016475035 0.1615931 0.056697443 1.3520508e-05
0.021776278 0.05182016 0.05553128 0.12970395 -0.11874443 0.031160185 -0.05086779 -0.0842561
0.08529814 -0.075368784 0.0399613 0.03250987 -0.09878006 0.06040351 0.006271756 0.008342515
00000000: 4dd7 ebbc 5d95 2bbe 514f 04be 70ca 9fbc
00000010: cde5 a83d 9b4d 16be 25d9 2fbd 791c 16bd
00000020: 3099 b8bd 4ccb c93b 6e89 fd3d 323f f9bc
00000030: 322f 1b3d 1e21 51bd 3159 833d 8238 48bc
00000040: 7028 9cbd a646 843d 5276 dc3b 0645 d5bd
00000050: b48e 223e 0626 173e e9ce 96bd a757 f9bc
00000060: b6fa 9abd d290 bbbc ff09 763d c85c 873c
00000070: 4f58 c6bd 2861 943d f21c bcbd 60b6 a3bd
00000080: 2eb3 a7bd 5da2 74bd 4239 acbd 8e12 bdbd
00000090: 1ce1 6f39 3e79 2d3d 784e 14be 381f f5bc
000000a0: 2c19 dcba 794d f4bc bc13 41bd d863 b4bd
000000b0: c024 32bd 23ab d03d 6fc1 b3bd 9d45 36bd
000000c0: 55b7 8a3d 9615 a93d 4dd9 cabd 830d e03d
000000d0: 93e0 e7bb 9bee a63d 138d 243c 88f5 0abd
000000e0: caf0 e83c 73bf e2bd 269a 92bd 28cd 26bd
000000f0: b15d 913d 302f 293d 0fd5 55bd 8a0e 893d
00000100: 23af ea3d a7ed 5dbd 2b08 61bd ab89 7fbd
00000110: 7e09 233c d049 3fbd ea58 de3d 0738 6ebd
00000120: bb2a 923d 4fce d6bd d5bb 20bb e589 9ebd
00000130: ea22 d6bd 143f 443d de8b 88bd db46 0e3d
00000140: df3b 87bb 6b63 dd3d 8df7 cabd 5a0d c3bd
00000150: 7c40 bd3d 02ec 80bd faf2 bbbc 58c2 833d
00000160: 3580 97bd e4fc 32bd f46d efbd 6654 8fbd
00000170: 846a d0bd d624 d53c f42c a0bd b3a0 803d
00000180: c361 3f3d f75e 8d3d 954a 25b9 1de5 c0bd
00000190: 8828 9b3d 66ef ffbc 7523 4abd e106 5c3c
000001a0: d68a b63d 42c2 af3d 2f53 68bd 5e39 92bd
000001b0: a7f6 86bc a978 253e 943b 683d 24d6 6237
000001c0: 2a64 b23c 6041 543d c474 633d 1dd1 043e
000001d0: 4830 f3bd a543 ff3c be5a 50bd 768e acbd
000001e0: cbb0 ae3d f35a 9abd 76ae 233d 1229 053d
000001f0: 334d cabd ac69 773d 4d83 cd3b 0baf 083c

feat.mlp2.1.weight f4 [128]
0.85028255 0.7774859 0.75183964 0.9077289 0.9654165 0.7567361 0.8595276 1.0835134
1.2285461 0.9618267 1.0555284 1.3329159 0.91637903 0.8967418 1.248656 1.1316648
1.1451646 0.7905727 0.93556637 0.7525833 0.88343877 0.9162178 1.0739098 0.78264195
0.8839838 0.7138525 0.88992137 1.5122721 0.8887805 1.0839057 0.7942431 1.0623189
1.1291596 0.9350415 0.87589854 0.95215017 1.1068357 1.0670934 0.9440111 0.77286947
1.119147 0.89201677 1.0832746 0.9652228 0.9728864 0.99815625 0.8256165 0.93219435
0.95817417 1.1314054 0.7439467 0.99397445 1.1659518 1.5650836 1.1937503 1.1278378
1.019738 0.86839855 1.0681484 1.0376171 0.9582011 1.137116 0.9465563 0.7853513
1.09665 0.89797044 1.0918018 1.0358312 0.9352047 0.88835335 1.600635 1.1431717
1.8037211 1.0768807 0.8037621 0.7257092 0.9902062 1.1853495 0.8650169 0.97369146
1.000444 1.1488582 1.1353025 1.0211123 0.8928814 0.92617613 1.0053959 1.3745211
0.93447584 1.1205008 0.9681657 0.88366103 1.502677 1.3040831 0.8910539 1.5641342
1.5421067 1.122879 0.98396784 0.86431193 1.2940016 1.1782564 1.060985 0.91302973
0.9423323 1.4388258 1.0544034 1.0284758 1.4329591 1.5683496 0.98840994 1.0046928
1.1375746 1.3707603 1.1955298 0.84615415 0.7631611 0.8569623 0.9897402 1.0166433
0.95090896 1.0566328 1.357717 0.7568851 0.97871906 1.0493355 1.1180267 0.8473691
00000000: 1eac 593f 5109 473f 9078 403f ec60 683f
00000010: 8925 773f 75b9 413f 000a 5c3f 91b0 8a3f
00000020: 0041 9d3f 463a 763f 8e1b 873f fd9c aa3f
00000030: d197 6a3f df90 653f f6d3 9f3f 64da 903f
00000040: c194 923f f962 4a3f 4781 6f3f 4da9 403f
00000050: 0b29 623f 408d 6a3f e075 893f 395b 483f
00000060: c34c 623f 0abf 363f e3d1 633f 2292 c13f
00000070: 1e87 633f 6cbd 8a3f 8453 4b3f 11fa 873f
00000080: 4d88 903f e15e 6f3f e33a 603f 1dc0 733f
00000090: cbac 8d3f 8496 883f b6aa 713f c6da 453f
000000a0: 3540 8f3f 365b 643f bea8 8a3f d718 773f
000000b0: 150f 793f 2b87 7f3f 9a5b 533f 4aa4 6e3f
000000c0: e74a 753f e4d1 903f 4a73 3e3f 1c75 7e3f
000000d0: e93d 953f a954 c83f cfcc 983f fd5c 903f
000000e0: c686 823f 5e4f 5e3f 16b9 883f a3d0 843f
000000f0: ab4c 753f 048d 913f 8451 723f c80c 493f
00000100: 075f 8c3f 64e1 653f 29c0 8b3f 1e96 843f
00000110: 9369 6f3f 206b 633f 9ce1 cc3f 7353 923f
00000120: 55e0 e63f 3ad7 893f 5ac3 4d3f 14c8 393f
00000130: 277e 7d3f 88b9 973f bf71 5d3f d843 793f
00000140: 8d0e 803f c90d 933f 9851 913f cfb3 823f
00000150: e093 643f e119 6d3f d0b0 803f 4ff0 af3f
00000160: cf39 6f3f 926c 8f3f b5d9 773f 9c37 623f
00000170: b857 c03f 32ec a63f 1c1c 643f 8d35 c83f
00000180: c163 c53f 80ba 8f3f 51e5 7b3f 8c43 5d3f
00000190: d8a1 a53f 1bd1 963f 5bce 873f 51bc 693f
000001a0: b13c 713f 722b b83f b1f6 863f 18a5 833f
000001b0: 346b b73f aebf c83f 6f08 7d3f c699 803f
000001c0: 0b9c 913f 1375 af3f 1f07 993f 8f9d 583f
000001d0: 875e 433f e261 5b3f 9d5f 7d3f 5e21 823f
000001e0: c56e 733f be3f 873f acc9 ad3f 39c3 413f
000001f0: 558d 7a3f a050 863f 801b 8f3f 2eed 583f

feat.mlp2.1.bias f4 [128]
0.0593203 -0.20152843 0.1246695 0.16085531 -0.13024035 -0.017102677 -0.163118 0.25569528
0.013359806 -0.029827248 -0.20310946 0.016801387 0.2708256 0.025234058 -0.3448733 -0.004339972
0.057542313 -0.10060155 0.26752645 -0.25618705 -0.2186707 0.029375356 0.059407033 0.18872282
0.18105611 -0.15763217 0.16519943 -0.16677822 0.021604305 0.2348465 0.002766382 -0.0883833
-0.2621685 0.06601564 -0.009388391 -0.009097358 0.14769012 -0.06168552 -0.28320307 -0.18724728
0.08205037 -0.11273024 -0.15551886 0.034487154 0.1734877 -0.049873654 0.05567779 -0.024847612
0.05841782 -0.09981923 -0.26021063 0.20829514 -0.14353842 -0.105129026 0.38679197 0.11910554
0.39367628 0.06965853 0.14405444 0.19912224 -0.12884797 0.048441023 -0.020403419 -0.30314407
0.041494463 -0.24137026 0.08396278 -0.14311332 0.111973435 -0.32517147 0.027292639 -0.12878883
0.07412111 0.096462384 -0.094979964 -0.16006547 -0.13343889 -0.0009807174 -0.2574461 -0.014311094
0.17729934 0.05207388 0.09670366 0.28759676 0.22459929 0.0699748 -0.114667214 0.25304562
0.08957999 -0.15971841 0.51551014 0.1303227 -0.62147564 0.32506576 -0.015145642 0.3728625
-0.11445147 -0.15516919 0.053970627 -0.030822111 -0.10595472 -0.12677573 0.19283532 -0.21349575
0.3393673 0.1666001 -0.10252132 -0.1650781 0.24827898 0.07837966 0.12065835 0.08528434
-0.13321967 -0.079091415 -0.14757611 -0.1112563 -0.21349518 -0.07032389 -0.13093412 0.05186363
0.18920943 -0.11059367 -0.08829974 -0.3631349 0.09807558 0.046052516 0.5498223 -0.22534548
00000000: d8f9 723d 785d 4ebe b952 ff3d 41b7 243e
00000010: ba5d 05be ea1a 8cbc 6808 27be 7eea 823e
00000020: 16e3 5a3c 4658 f4bc edfb 4fbe 10a3 893c
00000030: a7a9 8a3e a8b7 ce3c 3c93 b0be 5336 8ebb
00000040: 7db1 6b3d 2f08 cebd 3af9 883e f32a 83be
00000050: 36eb 5fbe 96a4 f03c ca54 733d 8e40 413e
00000060: c666 393e 546a 21be 0a2a 293e e9c7 2abe
00000070: 83fb b03c 9a7b 703e 304c 353b 4e02 b5bd
00000080: f33a 86be 3533 873d c4d1 19bc 160d 15bc
00000090: 143c 173e f5a9 7cbd feff 90be c0bd 3fbe
000000a0: 060a a83d 1ddf e6bd 5640 1fbe 6742 0d3d
000000b0: c2a6 313e 5148 4cbd 650e 643d 388d cbbc
000000c0: 8647 6f3d 066e ccbd 543a 85be 524b 553e
000000d0: bcfb 12be e34d d7bd 9909 c63e 9bed f33d
000000e0: f08f c93e 22a9 8e3d 0283 133e b3e6 4b3e
000000f0: b9f0 03be 186a 463d 1225 a7bc b335 9bbe
00000100: 19f6 293d c429 77be aef4 ab3d 4c8c 12be
00000110: 5452 e53d e07c a6be d094 df3c 38e1 03be
00000120: cfcc 973d 128e c53d db84 c2bd 34e8 23be
00000130: 34a4 08be 6a8b 80ba facf 83be 1479 6abc
00000140: f58d 353e 6c4b 553d 920c c63d e23f 933e
00000150: 5bfd 653e f34e 8f3d a5d6 eabd 328f 813e
00000160: b775 b73d 398d 23be 79f8 033f 5073 053e
00000170: 0719 1fbf 056f a63e 6d25 78bc d5e7 be3e
00000180: 8865 eabd ace4 1ebe 4e10 5d3d a77e fcbc
00000190: cafe d8bd 7fd1 01be 9f76 453e a19e 5abe
000001a0: 8dc1 ad3e 3799 2a3e b3f6 d1bd 3c0a 29be
000001b0: d83c 7e3e 8485 a03d ba1b f73d 8ea9 ae3d
000001c0: bd6a 08be aefa a1bd 311e 17be 58da e3bd
000001d0: 7b9e 5abe f905 90bd 9813 06be f56e 543d
000001e0: 1ec0 413e ef7e e2bd 7ed6 b4bd d1ec b9be
000001f0: dadb c83d 90a1 3c3d 27c1 0c3f f7c0 66be

feat.mlp2.1.running_mean f4 [128]
1.8441234 0.14458072 -0.7795417 0.54492843 -0.66625595 2.902782 -2.0446754 -0.46827257
-3.213374 0.9740639 -4.0667925 -1.0915784 0.17552142 1.6329886 -3.052763 -2.422695
1.8794931 -2.239052 -0.4796916 0.7671068 1.4986858 -0.065875 -1.019316 -0.26438287
-1.8507682 0.045162216 -0.95437336 -2.1892884 2.9378712 -2.0629153 1.4372942 -2.963911
-2.1879344 -2.0651202 -1.7916775 -0.85104936 -3.9222696 -1.5213542 1.2579563 -2.2057085
-2.2879343 -0.0056364625 -0.8617598 1.7328994 -2.4200194 -2.24748 1.921204 -1.7458817
2.0264852 -3.1433206 -0.09509672 -2.518797 -1.8880341 -3.1433146 -0.98882353 -1.9272858
-1.9765346 -1.8386564 -1.128872 -0.4012231 1.5881839 -3.7612019 2.6326125 -0.49677694
-4.857135 0.4058049 -3.6926348 -2.4316676 -1.7045381 -2.6304357 -3.558499 -4.7722616
-3.4482388 -2.1382399 -1.4971082 -0.051718846 -0.2605299 -3.140929 -0.15799864 -2.057672
0.51664627 -4.7987585 -4.346189 -1.4302449 -0.9487298 1.0979258 -0.5226646 -4.675729
2.4057372 -2.465957 -1.725449 1.0299357 -5.469938 -3.5445046 1.850488 -4.1191015
-4.699677 -2.6882644 -2.1858916 1.5063556 -4.957866 -3.3227043 -1.3731606 1.2425914
-1.0227468 -3.329829 2.9022894 -1.3045641 -4.1099644 -3.8418393 -1.1510451 -3.1351538
-1.037457 -3.5863967 -5.210012 1.5240281 -0.20309106 -2.3803675 1.1273446 1.1941482
2.0681078 -2.5105002 -3.1385398 1.0936204 -1.009489 0.39077407 -0.40483695 -1.7444953
00000000: 3c0c ec3f f80c 143e 0b90 47bf 6e80 0b3f
00000010: c08f 2abf 2ec7 3940 f6db 02c0 6cc1 efbe
00000020: eba7 4dc0 405c 793f 2a23 82c0 d7b8 8bbf
00000030: e3bb 333e c505 d13f 7860 43c0 6f0d 1bc0
00000040: 3b93 f03f a14c 0fc0 239a f5be 1c61 443f
00000050: f0d4 bf3f 79e9 86bd f278 82bf 315d 87be
00000060: f9e5 ecbf 04fc 383d d051 74bf 4d1d 0cc0
00000070: 1506 3c40 ce06 04c0 42f9 b73f b8b0 3dc0
00000080: 1e07 0cc0 ee2a 04c0 b055 e5bf 5fde 59bf
00000090: 7706 7bc0 bcbb c2bf b604 a13f 542a 0dc0
000000a0: 846d 12c0 13b2 b8bb 4a9c 5cbf a6cf dd3f
000000b0: 99e1 1ac0 b6d6 0fc0 03ea f53f 0d79 dfbf
000000c0: efb1 0140 2a2c 49c0 12c2 c2bd f833 21c0
000000d0: 1aab f1bf 112c 49c0 8a23 7dbf 4db1 f6bf
000000e0: 16ff fcbf 1859 ebbf e17e 90bf 1d6d cdbe
000000f0: 9c49 cb3f 88b7 70c0 b97c 2840 8c59 febe
00000100: a66d 9bc0 a9c5 cf3e 2154 6cc0 71a0 1bc0
00000110: 4e2e dabf 0f59 28c0 73be 63c0 5eb6 98c0
00000120: f2af 5cc0 ecd8 08c0 3ea1 bfbf 24d7 53bd
00000130: 2d64 85be fb04 49c0 65ca 21be e6b0 03c0
00000140: ee42 043f 6e8f 99c0 fb13 8bc0 4412 b7bf
00000150: f5df 72bf d588 8c3f 59cd 05bf 929f 95c0
00000160: 99f7 1940 3dd2 1dc0 83db dcbf efd4 833f
00000170: bb09 afc0 2ad9 62c0 cadc ec3f aecf 83c0
00000180: c163 96c0 860c 2cc0 a6e5 0bc0 43d0 c03f
00000190: d7a6 9ec0 30a7 54c0 bac3 afbf 3c0d 9f3f
000001a0: 5ee9 82bf eb1b 55c0 1cbf 3940 f5fb a6bf
000001b0: d484 83c0 b2e0 75c0 7255 93bf 5ca6 48c0
000001c0: 64cb 84bf 8687 65c0 6bb8 a6c0 5a13 c33f
000001d0: 1af7 4fbe f157 18c0 d44c 903f d9d9 983f
000001e0: e15b 0440 09ac 20c0 d6dd 48c0 c1fb 8b3f
000001f0: f036 81bf 8a13 c83e ca46 cfbe 9f4b dfbf

feat.mlp2.1.running_var f4 [128]
5.07574 4.9295053 4.834063 5.5603943 7.403805 4.9643974 6.406111 9.90545
11.6417675 3.891789 7.4732423 4.352823 6.31855 7.06624 4.850176 5.143317
6.8099566 2.695018 9.605624 8.084341 3.3187115 6.3311296 6.88076 5.3013024
8.420363 7.629954 4.6200347 5.394514 2.1435997 5.84911 5.5046043 5.3489566
7.0396924 6.1527314 5.377401 2.8995726 10.608059 6.2546763 4.8958454 4.9617734
8.126834 5.703527 3.241598 5.159354 8.024322 5.536325 3.0250964 8.131523
6.402097 8.97056 4.8310266 5.677285 8.995419 6.7965856 3.8208718 11.091484
10.332802 5.903632 8.532984 2.905172 5.2563868 6.655113 8.235868 5.1775327
6.4111614 3.286916 9.46938 6.061998 6.7345157 3.8436253 9.842707 4.046141
6.179819 8.890355 6.262795 5.0009174 9.919131 8.415131 4.4012785 3.7148926
8.325163 7.6102276 8.239105 10.720603 11.103753 6.948232 8.9556465 10.058494
7.520802 4.1895413 10.389431 5.3986735 7.200643 5.2478104 8.55571 5.56077
7.8738656 4.3197656 11.399094 7.8379526 8.4471035 5.0980844 9.853531 6.683702
5.612574 4.381733 5.8797245 6.7014403 9.589474 7.250537 5.338944 8.19072
4.1771107 8.583816 4.6780224 8.020702 2.949287 5.9125185 4.374877 7.728609
5.2875943 8.847943 3.6434064 3.2424486 2.5808244 9.040949 10.571447 5.1475363
00000000: 766c a240 82be 9d40 a5b0 9a40 c0ee b140
00000010: f8eb ec40 58dc 9e40 dcfe cc40 b97c 1e41
00000020: ae44 3a41 1213 7940 cd24 ef40 534a 8b40
00000030: 9031 ca40 a31e e240 a434 9b40 0e96 a440
00000040: 2aeb d940 2d7b 2c40 a3b0 1941 7659 0141
00000050: c565 5440 9d98 ca40 302f dc40 45a4 a940
00000060: cfb9 0641 9528 f440 53d7 9340 dc9f ac40
00000070: bd30 0940 e92b bb40 b825 b040 a72a ab40
00000080: 2945 e140 2de3 c440 ab13 ac40 9992 3940
00000090: 9cba 2941 4f26 c840 c4aa 9c40 d9c6 9e40
000000a0: 8307 0241 4b83 b640 5776 4f40 6e19 a540
000000b0: 9f63 0041 9329 b140 2e9b 4140 b81a 0241
000000c0: fbdd cc40 6a87 0f41 c597 9a40 52ac b540
000000d0: 3ced 0f41 a17d d940 2a89 7440 b876 3141
000000e0: 2853 2541 8eea bc40 1a87 0841 57ee 3940
000000f0: 5234 a840 b0f6 d440 1ec6 0341 59ae a540
00000100: 3c28 cd40 d55c 5240 9582 1741 e3fb c140
00000110: 2781 d740 f5fd 7540 ba7b 1d41 fd79 8140
00000120: 14c1 c540 e53e 0e41 d168 c840 8407 a040
00000130: c3b4 1e41 60a4 0641 46d7 8c40 cdc0 6d40
00000140: de33 0541 fc86 f340 60d3 0341 9787 2b41
00000150: f9a8 3141 eb57 de40 544a 0f41 97ef 2041
00000160: 69aa f040 b910 8640 1c3b 2641 efc1 ac40
00000170: ab6b e640 10ee a740 30e4 0841 d4f1 b140
00000180: b5f6 fb40 853b 8a40 b062 3641 82d0 fa40
00000190: 5627 0741 8223 a340 10a8 1d41 e3e0 d540
000001a0: 359a b340 2837 8c40 b426 bc40 3372 d640
000001b0: 7c6e 1941 6604 e840 a1d8 aa40 300d 0341
000001c0: e4aa 8540 4f57 0941 5cb2 9540 cc54 0041
000001d0: 1ec1 3c40 5a33 bd40 fefe 8b40 c450 f740
000001e0: f933 a940 2d91 0d41 922d 6940 4784 4f40
000001f0: 3a2c 2540 baa7 1041 a624 2941 9eb8 a440

feat.mlp3.0.weight f4 [256, 128, 1]
-0.117405675 0.0864694 -0.16593114 -0.016070057 -0.13662954 -0.16377114 0.08655775 -0.10782249
0.10115087 -0.1859729 -0.37641644 0.013646836 -0.2923854 -0.076138735 0.12490622 0.058729086
-0.11657711 -0.046730008 -0.22773467 -0.20322675 -0.22087792 0.010115804 -0.09374032 -0.17956553
0.1362379 -0.049988214 0.040298212 0.16228208 -0.051551577 -0.12783137 -0.07431643 -0.16213857
-0.33962053 -0.32314834 -0.11751968 -0.17292503 -0.16767709 -0.38139358 -0.14223108 -0.16936162
-0.23861799 -0.11425021 0.14147016 -0.26057753 -0.6390588 -0.2108889 -0.051662486 0.01459665
-0.21691097 -0.19683161 -0.14658202 0.0056593274 -0.075812176 0.012512447 0.032128602 0.08264252
-0.45857716 0.028017322 0.07141493 -0.16904375 0.011192581 -0.1323046 -0.040526308 -0.10964796
-0.3508765 -0.059367925 -0.45990217 -0.26540622 -0.050655495 -0.11291537 -0.27136296 -0.37572464
0.16868614 -0.12878084 -0.22561069 -0.04704483 0.01768788 -0.088892125 0.02189051 0.11135657
-0.21843784 -0.34532785 -0.28861615 -0.06399388 0.08473967 -0.03426358 -0.10625248 -0.4582877
-0.09902666 -0.0577809 -0.34634584 -0.27438524 0.26812568 -0.21515922 0.004978526 -0.06761518
0.118899286 -0.12887844 -0.06149538 0.021496963 0.0848151 -0.12270009 0.02471509 -0.037370205
-0.27197403 -0.13814133 -0.1288875 -0.19867128 0.07216922 0.27419883 -0.17679161 0.18511793
0.036804773 0.16313593 -0.40393063 -0.045958236 -0.3155202 -0.09865468 -0.14080812 -0.115907714
-0.15751602 -0.19020554 0.105941005 -0.08263825 0.10347741 0.11347638 -0.061709005 -0.28838536
-0.15073457 -0.111419305 -0.11460577 -0.01716358 -0.067783326 -0.054252084 0.067101106 -0.14407803
0.29199192 -0.12541912 -0.12930262 -0.5305416 -0.1594153 -0.21654904 -0.22665258 0.23257439
-0.34282467 -0.07485239 0.10483473 0.1419575 -0.04518488 0.27106607 -0.2929481 0.02449188
0.1279883 0.28709516 0.15200472 0.39235651 -0.110675305 0.099656224 -0.030431028 -0.30201593
-0.06248025 -0.17490934 -0.028499844 -0.0172131 -0.055386923 -0.1251741 -0.04940495 -0.21783529
-0.1950031 -0.18378899 0.28295192 0.106378146 -0.13926274 -0.05187469 -0.07718539 -0.23217934
-0.22735159 -0.22232836 -0.010043652 0.2849948 -0.25697538 -0.2155623 -0.393323 0.32188138
-0.07398991 -0.008667945 -0.05149169 -0.19961326 -0.17137983 0.14000887 -0.13828012 -0.15330157
-0.18797077 0.027186701 -0.17559378 -0.06446109 -0.100757755 -0.05211558 0.13135058 -0.14160581
-0.187807 0.07634503 -0.3546872 0.035519566 0.1924329 -0.20486414 -0.15661259 0.048470072
-0.34194764 0.019045282 -0.13401634 0.010328345 -0.08305094 -0.0916797 0.004760096 -0.370923
-0.0533422 -0.19836158 -0.041054316 0.15288185 0.55926514 0.034680635 0.060118366 -0.12536392
0.09741313 0.3026107 0.20856452 -0.05247081 0.29586396 0.31657693 0.10830079 -0.083026476
0.03360868 0.008794448 -0.104771234 0.1301765 -0.18407802 0.4333573 0.059865788 0.08653781
0.3073461 0.29503793 -0.1600654 -0.016370993 -0.16791028 -0.07807625 -0.111866266 0.13293779
0.12516491 -0.035657786 -0.22597197 -0.26752278 0.089377955 0.033805426 -0.021159641 -0.3351329
00000000: 6372 f0bd de16 b13d dae9 29be 5aa5 83bc
00000010: 9de8 0bbe 9fb3 27be 3145 b13d 0ad2 dcbd
00000020: 3028 cf3d ae6f 3ebe a8b9 c0be fb96 5f3c
00000030: 8ab3 95be a0ee 9bbd d5ce ff3d e98d 703d
00000040: fbbf eebd f767 3fbd 4733 69be ac1a 50be
00000050: d22d 62be c2bc 253c edfa bfbd 07e0 37be
00000060: f381 0b3e 71c0 4cbd bd0f 253d 462d 263e
00000070: bf27 53bd 3ae6 02be 3633 98bd a707 26be
00000080: bee2 adbe b373 a5be 28ae f0bd 4213 31be
00000090: 8bb3 2bbe 0546 c3be 06a5 11be 226d 2dbe
000000a0: 4658 74be 04fc e9bd 8edd 103e 6b6a 85be
000000b0: 5c99 23bf 43f3 57be 0b9c 53bd ca26 6f3c
000000c0: e91d 5ebe 3a8e 49be 9919 16be e171 b93b
000000d0: 6a43 9bbd 0201 4d3c 4899 033d 7b40 a93d
000000e0: a0ca eabe 9584 e53c fe41 923d ce19 2dbe
000000f0: 1661 373c db7a 07be eafe 25bd 1c8f e0bd
00000100: 16a6 b3be c82b 73bd 4c78 ebbe 53e3 87be
00000110: 237c 4fbd 2c40 e7bd 16f0 8abe fb5e c0be
00000120: 0fbc 2c3e 20df 03be 7d06 67be 14b2 40bd
00000130: 2ce6 903c 130d b6bd ba53 b33c ea0e e43d
00000140: 2bae 5fbe d0ce b0be 7fc5 93be 390f 83bd
00000150: fe8b ad3d f857 0cbd e69a d9bd afa4 eabe
00000160: 7dce cabd aaab 6cbd 3e54 b1be 397c 8cbe
00000170: c547 893e b352 5cbe e722 a33b d479 8abd
00000180: 7881 f33d b6f8 03be 94e2 7bbd 661a b03c
00000190: 8ab3 ad3d 2f4a fbbd 4d77 ca3c 8011 19bd
000001a0: 2e40 8bbe ec74 0dbe 16fb 03be 7c70 4bbe
000001b0: 75cd 933d ca63 8c3e dc08 35be 8e8f 3d3e
000001c0: 9ac0 163d 1b0d 273e ffcf cebe b43e 3cbd
000001d0: dd8b a1be 770b cabd 0130 10be 0661 edbd
000001e0: e14b 21be 3ec5 42be 99f7 d83d 3e3e a9bd
000001f0: f7eb d33d 4e66 e83d 95c2 7cbd 3fa7 93be
00000200: 2a5a 1abe ce2f e4bd 6eb6 eabd a39a 8cbc
00000210: fcd1 8abd 6f37 5ebd 4e6c 893d 3189 13be
00000220: f77f 953e df6d 00be e867 04be 93d1 07bf
00000230: c43d 23be 08bf 5dbe 9d17 68be fb27 6e3e
00000240: b786 afbe 364c 99bd 97b3 d63d 4f5d 113e
00000250: c813 39bd 2cc9 8a3e 4bfd 95be 32a3 c83c
00000260: 5d0f 033e 23fe 923e 20a7 1b3e f4e2 c83e
00000270: bca9 e2bd 9018 cc3d 7e4a f9bc d5a1 9abe
00000280: 4aeb 7fbd 6f1b 33be 8178 e9bc 7d02 8dbc
00000290: 66dd 62bd a42d 00be d85c 4abd 3710 5fbe
000002a0: e5ae 47be 2e33 3cbe 13df 903e c9dc d93d
000002b0: e49a 0ebe 8e7a 54bd 6013 9ebd 6cc0 6dbe
000002c0: dbce 68be 0caa 63be 218e 24bc d7ea 913e
000002d0: 4792 83be 5dbc 5cbe a261 c9be a3cd a43e
000002e0: 0688 97bd ff03 0ebc f3e8 52bd 6b67 4cbe
000002f0: 327e 2fbe 7c5e 0f3e 4e99 0dbe 16fb 1cbe
00000300: 697b 40be a5b6 de3c dbce 33be 2d04 84bd
00000310: 155a cebd 2577 55bd c480 063e 1d01 11be
00000320: 7a50 40be c85a 9c3d 9099 b5be f77c 113d
00000330: 210d 453e e8c7 51be 0d5f 20be 8e88 463d
00000340: c313 afbe da04 9c3c 943b 09be 3838 293c
00000350: 9c16 aabd 91c2 bbbd 94fa 9b3b 9fe9 bdbe
00000360: 5a7d 5abd 4c1f 4bbe 9228 28bd 0f8d 1c3e
00000370: 002c 0f3f 480d 0e3d ad3e 763d 665f 00be
00000380: 8980 c73d caef 9a3e f091 553e a2eb 56bd
00000390: 7b7b 973e 5f16 a23e cecc dd3d c909 aabd
000003a0: 41a9 093d 9716 103c 4d92 d6bd fd4c 053e
000003b0: f37e 3cbe 02e1 dd3e d435 753d bc3a b13d
000003c0: 785c 9d3e 360f 973e 2fe8 23be 761c 86bc
000003d0: acf0 2bbe 71e6 9fbd 241a e5bd d820 083e
000003e0: 3b2b 003e e60d 12bd 3265 67be bff8 88be
000003f0: ca0b b73d 8f77 0a3d fc56 adbc 8a96 abbe

feat.mlp3.0.bias f4 [256]
0.08214729 0.02711756 -0.06809806 0.076385945 -0.031279895 0.03245373 0.096456 -0.08717279
-0.03006373 -0.045401823 -0.08222764 -0.042806353 0.024148608 -0.0725419 -0.051674817 0.080485016
0.0518232 0.019112105 0.04020672 -0.019573996 -0.05034691 -0.017352479 0.053882543 0.080725715
-0.052717913 0.006366739 -0.0019137914 -0.049401253 0.045321766 0.06019858 0.028557517 -0.026717968
-0.07757666 0.05310535 0.0061570243 -0.04970834 0.045357123 -0.05540164 -0.067582585 -0.058689818
-0.024406256 0.052939482 -0.019500451 -0.033245787 0.0702524 -0.060651176 0.00635822 -0.049322672
0.020287821 -0.025598787 -0.061209995 -0.030111408 0.062142413 -0.08399449 0.009326256 0.090100475
0.071934804 -0.026205093 0.052055497 0.011517857 -0.037494075 -0.06828185 -0.04555764 -0.06912311
-0.01929132 -0.0017863435 0.07446548 -0.07039302 -0.0001955445 -0.09462669 -0.025207922 -0.062383194
0.091780715 -0.06832818 -0.029387498 0.01936798 -0.05646352 -0.02908498 0.06542639 0.04643674
0.0271194 -0.0179096 0.050462507 -0.0017984754 0.0075620958 0.019143097 0.056384392 -0.016242264
0.06968883 -0.06613356 -0.073324375 -0.03724995 0.009330359 -0.031637672 -0.02953458 0.051633794
0.014228285 0.020807708 -0.072216585 0.021113731 0.018492877 -0.0015103688 -0.08311862 -0.029772911
-0.031401094 0.07972637 -0.03139799 -0.019105965 -0.10092512 0.013689951 0.064950414 -0.060833443
0.09016105 0.072722614 0.030600868 0.036481116 -0.00089887186 0.04530664 0.08313447 0.06252142
0.086628884 -0.06704993 0.024550064 -0.032059956 -0.087003514 -0.08309752 0.08567681 -0.033590414
-0.0032412894 -0.027381517 -0.067335315 0.00560252 0.056780517 -0.021938141 0.05414539 0.037808627
0.036207087 0.08433595 -0.045481205 0.0023124423 0.06408081 -0.0530027 0.0014575947 -0.0077352873
-0.08623384 -0.023393992 0.02691473 0.031133251 -0.052293856 0.07737467 -0.022757169 -0.016794173
-0.021237252 0.015032799 -0.05570951 0.10041223 0.05016873 -0.05991349 -0.069269456 -0.096302725
0.07576361 -0.08567507 -0.07437418 -0.097226895 0.044101957 -0.013037445 -0.06191781 0.041836783
-0.06464755 -0.045125276 0.067083806 0.012773752 0.04491247 0.07363753 -0.019816194 -0.0019142405
0.03282004 0.069426864 -0.07197733 -0.09756472 0.049468163 -0.021400016 -0.07188072 0.06330513
-0.039444707 0.05631967 -0.07024066 -0.011796173 0.012844476 -0.01140612 0.06649296 -0.048697617
0.080042526 0.01694554 0.033741027 0.058737066 0.042436216 -0.0556382 0.08701588 0.033093877
-0.10123219 -0.04839459 -0.025268197 -0.07024142 0.04096317 0.00058206974 -0.025461964 0.04464392
-0.034357864 -0.01335634 -0.039510384 0.03837144 0.02479539 0.00461526 -0.05855763 -0.0104925595
-0.023248505 0.028265478 0.0726483 0.034329366 0.015003289 -0.039565492 0.074291885 -0.008912062
0.042743783 -0.064647585 0.063909136 -0.08425942 -0.07245588 -0.05669446 -0.022290627 -0.047299944
-0.0589635 0.055209637 0.03639666 0.03673067 -0.0037204886 -0.011785457 0.039006446 0.0077509545
0.022126481 -0.050337393 0.07026674 0.06739192 -0.036330443 -0.068942994 0.027047591 -0.010727412
-0.03295856 -0.001286301 0.009535171 -0.001508396 0.00546364 0.09953106 0.053494018 0.02489276
00000000: d73c a83d a525 de3c ff76 8bbd 3c70 9c3d
00000010: 591f 00bd 34ee 043d b98a c53d a687 b2bd
00000020: 3648 f6bc 43f7 39bd f766 a8bd b755 2fbd
00000030: 4dd3 c53c d990 94bd f9a8 53bd 54d5 a43d
00000040: 9044 543d fd90 9c3c cdaf 243d a559 a0bc
00000050: 9038 4ebd c926 8ebc f1b3 5c3d 8653 a53d
00000060: bdee 57bd 14a0 d03b 2fd8 faba f858 4abd
00000070: 51a3 393d c992 763d 74f1 e93c a4df dabc
00000080: 83e0 9ebd ff84 593d ddc0 c93b f99a 4bbd
00000090: 64c8 393d d4ec 62bd bd68 8abd bc64 70bd
000000a0: a1ef c7bc 12d7 583d 69bf 9fbc bc2c 08bd
000000b0: 7ee0 8f3d 5e6d 78bd 9d58 d03b 9206 4abd
000000c0: a532 a63c 8cb4 d1bc 55b7 7abd 33ac f6bc
000000d0: 0b89 7e3d 4e05 acbd 27cd 183c 9986 b83d
000000e0: 8e52 933d 10ac d6bc 2538 553d 65b5 3c3c
000000f0: 6393 19bd 5bd7 8bbd a69a 3abd 6b90 8dbd
00000100: d508 9ebc be23 eaba 5c81 983d 372a 90bd
00000110: 140b 4db9 a3cb c1bd d880 cebc 8585 7fbd
00000120: 87f7 bb3d a5ef 8bbd 0dbe f0bc 99a9 9e3c
00000130: 4b46 67bd a043 eebc 45fe 853d 7334 3e3d
00000140: 8129 de3c 27b7 92bc c6b1 4e3d d2ba ebba
00000150: 75cb f73b fcd1 9c3c 52f3 663d 7f0e 85bc
00000160: 04b9 8e3d 0871 87bd 172b 96bd 6793 18bd
00000170: 5dde 183c 8196 01bd 81f2 f1bc f57d 533d
00000180: c11d 693c ed74 aa3c 4ae6 93bd b4f6 ac3c
00000190: 607e 973c 91f7 c5ba 183a aabd 52e6 f3bc
000001a0: 6f9e 00bd 9447 a33d 2e9b 00bd 1d84 9cbc
000001b0: d4b1 cebd d14b 603c b904 853d 7d2c 79bd
000001c0: 5ba6 b83d 98ef 943d acae fa3c 396d 153d
000001d0: 45a2 6bba 7593 393d 6842 aa3d 3b0b 803d
000001e0: 7c6a b13d 7951 89bd 371d c93c 4d51 03bd
000001f0: e62e b2bd 082f aabd 5377 af3d 1a96 09bd
00000200: d06b 54bb 344f e0bc 19e7 89bd 5895 b73b
00000210: b092 683d 9eb7 b3bc 8ec7 5d3d 38dd 1a3d
00000220: e24d 143d 54b8 ac3d 804a 3abd 588c 173b
00000230: cd3c 833d 5c19 59bd c30c bf3a 4b78 fdbb
00000240: 5e9b b0bd c2a4 bfbc 487c dc3c 290b ff3c
00000250: 1532 56bd 9c76 9e3d 3e6d babc ef93 89bc
00000260: bff9 adbc 214c 763c a82f 64bd eda4 cd3d
00000270: ba7d 4d3d d967 75bd 25dd 8dbd 5d3a c5bd
00000280: f429 9b3d 6976 afbd 7d51 98bd e51e c7bd
00000290: 41a4 343d 029b 55bc 889d 7dbd 0c5d 2b3d
000002a0: ef65 84bd 48d5 38bd 3c63 893d 0049 513c
000002b0: 23f6 373d 46cf 963d 9255 a2bc 41e7 faba
000002c0: 4e6e 063d ac2f 8e3d da68 93bd 03d0 c7bd
000002d0: 219f 4a3d 164f afbc 3336 93bd 1fa6 813d
000002e0: c690 21bd 74af 663d 56da 8fbd bc44 41bc
000002f0: a371 523c bce0 3abc 762d 883d 2777 47bd
00000300: 56ed a33d 60d1 8a3c 0834 0a3d 4796 703d
00000310: 99d1 2d3d e2e4 63bd 6235 b23d 728d 073d
00000320: d352 cfbd 6839 46bd 40ff cebc bcda 8fbd
00000330: ffc8 273d 0a96 183a 9c95 d0bc 8bdc 363d
00000340: d5ba 0cbd 8dd4 5abc a4d5 21bd 5f2b 1d3d
00000350: b41f cb3c 9b3b 973b 20da 6fbd fce8 2bbc
00000360: a673 bebc 018d e73c a2c8 943d f39c 0c3d
00000370: 5bd0 753c 6d0f 22bd 5826 983d e603 12bc
00000380: 1b14 2f3d f465 84bd cbe2 823d 3490 acbd
00000390: c063 94bd 7338 68bd d59a b6bc 96bd 41bd
000003a0: b683 71bd 8023 623d aa14 153d e672 163d
000003b0: 71d3 73bb ca17 41bc 39c5 1f3d b8fb fd3b
000003c0: 9842 b53c 952e 4ebd 02e8 8f3d c604 8a3d
000003d0: 3bcf 14bd fc31 8dbd e992 dd3c 07c2 2fbc
000003e0: 8eff 06bd 1999 a8ba 6839 1c3c 5fb5 c5ba
000003f0: 5608 b33b f1d6 cb3d 8b1c 5b3d e7eb cb3c
